Models/diabetes.pt (torch_old, 6716 bytes, 6 tensors)

weight f4 [20, 8]
00000000: 09ef c73d 60fe 8dbe efc8 183e 4088 6c3e
00000010: ce8d a6be 3826 1d3f b92b 5240 7329 31bf
00000020: 1602 e63d 61f1 993e 1a84 79be 3dec f2bd
00000030: eb6d 2e3e 17ca 8abe 8277 073d c763 023d
00000040: d28d 10be 8df6 55bd 9885 2e3d 7c0c febe
00000050: eef0 883d 3493 10be 2919 f63e 0b34 92be
00000060: fd9f ecbe 3bcf 15bd 6242 4a3e 13cc 2f3d
00000070: cec7 373c cbb0 9f3e 6516 e0bf 9c45 d3be
00000080: a341 873e ecd1 d7bd 8449 f9bd 96cb fcbd
00000090: cc5b 3cbe 0011 7cbc 5841 43be 2429 d23d
000000a0: e383 6ebf 7256 6d3d 84d2 52bd f659 c3be
000000b0: 7cbb 393e 5757 ecbe 08bd f53e a897 b43e
000000c0: a438 1cbf 8311 bbbe bbee b7be 1af9 83be
000000d0: ed50 ed3d 777a db3e 5dca a1bf 9759 2e3f
000000e0: 2592 dfbe 875e 813e b96b 05be fa6f aa3e
000000f0: eb95 863e 57ba ddbc e51b 75bf 7f32 d83c
00000100: 2ffe fa3e c873 553d 3a2e d0be 416a 163e
00000110: 92b2 163d 4570 98be f35d d33f 3547 163f
00000120: 9a93 0bbe 6355 513e 750d 7d3d 730b 15bf
00000130: c441 833d 2eda afbe abd6 7cbf dbf6 e93d
00000140: 0908 d7be 8dcd 02bf 8fdc d03e d80b cfbd
00000150: e936 213e 76f4 26be afc7 1440 d8f5 3abf
00000160: bc05 be3d 3a91 6a3e 22c9 d6be 4b06 c2be
00000170: 90b6 11be 1a5c 3f3e a8b5 8fbf 68ea 41be
00000180: 7cfc af3e b92b 153e 42c6 76be ec68 863e
00000190: 733a 703e b9f5 b3be f9e7 4b40 3468 b7bd
000001a0: a778 023e 4af8 4ebe b620 8e3e a877 b73e
000001b0: dc78 d4bd 067f 4cbe 8bca c0bf 2ce2 2c3e
000001c0: 264b dd3c 43f7 34be bea3 a5bc 6f5e 393f
000001d0: b278 593e 51a3 9dbe 3e8a bf3e 4804 95be
000001e0: 5a2e 413d 0238 923e 53e8 0c3d a1c7 bb3d
000001f0: b7e1 47be 634e 2f3c 292a 6e3f cca9 b73e
00000200: 8327 2ebf c69f 643e 7347 12bd 607f 1b3e
00000210: 8e69 1bbe 6e08 22bd 80a5 91bf 5be6 f33d
00000220: 0013 da3d 337c 7cbe 50e3 043d 98ee 39bd
00000230: 988e 9c3d 4d18 0ebe f67e 603e 45cc 98be
00000240: 4a6c 38bd 42aa 8ebe ce6f f13e c357 30bd
00000250: 40f4 2bbc 5c51 243d 8655 bb3f a0fc 6bbd
00000260: 59e9 7fbd b834 2ebe 8601 663e 53c8 27be
00000270: 0a0a 043e 2495 d0bd 96c1 b6bf 92cb 88bd
0.09762389 -0.27733135 0.149204 0.2309885 -0.32530063 0.6138644 3.2839186 -0.6920387
0.112308666 0.3006697 -0.24366799 -0.11861465 0.17034118 -0.27107307 0.033072956 0.031833436
-0.141166 -0.052237082 0.042607874 -0.496189 0.06686579 -0.14118654 0.4806607 -0.2855533
-0.4621581 -0.036574584 0.19751886 0.04291923 0.011217071 0.3118957 -1.7506834 -0.41264045
0.26417264 -0.10538086 -0.12172225 -0.123435184 -0.18394393 -0.0153849125 -0.19067895 0.10261753
-0.93169993 0.05794377 -0.051470295 -0.38154572 0.18137926 -0.46160385 0.47995782 0.35271955
-0.61023927 -0.36536798 -0.35924324 -0.25775987 0.11587701 0.4286687 -1.2639881 0.68105453
-0.43666187 0.2526743 -0.13029374 0.33288556 0.26286253 -0.027066393 -0.9574569 0.026391266
0.49022052 0.05211237 -0.40660268 0.1468897 0.03679139 -0.29773155 1.6513046 0.58702403
-0.13630524 0.20442729 0.06178041 -0.58220595 0.06409028 -0.34346145 -0.9876506 0.11424037
-0.41998318 -0.51094896 0.40793273 -0.10109681 0.15743603 -0.16304192 2.3246877 -0.7303138
0.092784375 0.22906962 -0.41950327 -0.37895426 -0.14229798 0.18687478 -1.1227312 -0.18937075
0.34372318 0.1456746 -0.24099067 0.26251924 0.23459797 -0.3514841 3.1860335 -0.08955422
0.12741338 -0.20211902 0.2775933 0.35833478 -0.103746146 -0.1997033 -1.5061811 0.16883153
0.027013373 -0.17672448 -0.02021968 0.7240972 0.21237448 -0.30788663 0.37410158 -0.2910483
0.047163345 0.28558356 0.03440125 0.091689356 -0.19519697 0.010699841 0.9303308 0.35871732
-0.6802904 0.22326574 -0.03571267 0.15185308 -0.15176985 -0.03955882 -1.1378632 0.11909171
0.10648155 -0.24656753 0.032443345 -0.045393556 0.07644385 -0.13876458 0.21923432 -0.29843345
-0.045025147 -0.2786427 0.47155613 -0.043052446 -0.010495245 0.040116653 1.4635475 -0.05761397
-0.062478397 -0.17012298 0.22461519 -0.16385011 0.12894455 -0.10184696 -1.4277828 -0.06679453

bias f4 [20]
00000000: 14dc 35c0 88f4 86bf b260 9abe 3bb9 0640
00000010: 3083 a43d 696e 04c0 40a7 87bf 310f 833f
00000020: 145b 5f3f adda 2440 4f84 8e3f dc26 11bf
00000030: 04bf 23c0 e276 eb3f 64b2 513f 35be cebf
00000040: 3ea9 b93f 1822 62bd c67a 88bf 2f11 4e3f
-2.8415575 -1.0543375 -0.30151898 2.1050556 0.080328345 -2.069239 -1.0597916 1.0239011
0.8724835 2.575847 1.1134127 -0.5669992 -2.5585337 1.8395655 0.8191283 -1.6151797
1.4504774 -0.055208296 -1.0662467 0.8049497

weight f4 [20, 20]
00000000: 1ef4 de3d e4ca 06bd 73c7 c93d 2121 413e
00000010: 6055 38be 9cea 4c3c 5a46 6bbf a013 c43d
00000020: 3241 afbd 6a36 523e 1322 763f 1999 aa3d
00000030: a614 24bd 7003 5c3e b8b7 dc3d 84d2 13be
00000040: dce7 5e3e 1a9e f4bd 70d6 0abe 6d9c 873e
00000050: b5f0 943e e686 02bc b59c 18bd a568 033e
00000060: e8af c23d 3219 533e b374 6c3f f632 c63d
00000070: e8bf cfbe 2b29 9bbc cdb9 2bc0 c39c 9d3e
00000080: c6f9 0a3e 9442 5c3e 98ce 6bbe 5fba 4b3c
00000090: b594 ab3d 64a7 1fbe 746f 5c3e 4020 4abe
000000a0: 414b 9d3c cf82 773d 3a77 31bd 21f5 1e3d
000000b0: 1027 503e db9c 8b3b 0b88 f83d 1804 86be
000000c0: e586 d5bd bb8f 1cbe 4e63 153e 59d9 423e
000000d0: d6ee 7fbd d509 1e3d a007 b53d 1bc8 13be
000000e0: 98f2 6c3c b20f 253e 23c7 50be 5c1e 57be
000000f0: 8a04 a1be bdb7 033d 9197 fd3c 3614 36be
00000100: d2fc 113e 5056 88be cb75 e2bd 1042 2dbe
00000110: b1f7 8d3d 8797 adbe a9eb 2a3e 3f7a a4be
00000120: f7ac 3bbd 97dd 1cbe cf7f aebd 5167 cb3d
00000130: 8eae 8bbc 50e3 423d 1c06 813d 889f 703d
00000140: 434b 0dbd 050f 2abe 85b6 1fbe a4b9 8abe
00000150: 2008 3bbe 64fd 77be c89d 7fbd 67a5 9e3b
00000160: c589 9abe 2d35 ccbc 171c b7bd 7847 2f3d
00000170: 701b 8fbe 0077 293b a68e 043e c665 9ebe
00000180: 4297 2fbe 30f3 39bc 03bf ed3d 01e1 d83d
00000190: ac29 1e3f e9c9 c43c d4cc a4bd ec65 37be
000001a0: c0e0 bdbb e5f7 053e d38f 3d3f 7565 3a3e
000001b0: b61c 0f3d f83c 1fbd 21bd b7bf 5b33 3cbc
000001c0: 278a 10be 4672 a73b dc2b 09be c9b0 8a3d
000001d0: 3604 673c 857a 26be 5a45 48bc 5d88 8fbd
000001e0: 4fff be3e 9156 36bd b08a 723d 8cf2 8bbd
000001f0: b4a5 d83d 7746 c5bd fa77 93bf 1da1 213e
00000200: d8dd 5cbd a86d b3bc dda3 893f 585f ba3e
00000210: 6d03 2cbe f49e 07be 60e1 f5bc 5433 3ebe
00000220: 0172 2f3e cede 1e3e 3ff8 e43e 062c 5e3e
00000230: 8fa1 8d3d e964 603d 0961 b8bd 41c5 e23d
00000240: bef5 fbbd 9b4b 48be 9453 2cbe e8bf 8dbe
00000250: cdb4 ea3d 24c1 b0bc eda6 e0bd 2c83 7ebd
00000260: 24f4 74be 845b 73be be12 89be ede1 1e3e
00000270: 6e63 1ebe d023 d3bd b512 f3bd d893 0d3e
00000280: 087b 3dbf 1d56 54be ed05 23bc 4b8c 90be
00000290: 2806 3cbe a239 883d e1fe 3c40 77d2 4bbe
000002a0: 4c6e ef3d 6c72 023c 1385 ad3d 2f14 9abe
000002b0: dd28 37bd 7021 433d b65b 3c3d 6d92 0d3e
000002c0: 01d7 09be b41c 52bd a81d c0bd e72e 49be
000002d0: 4e8c dbbd 000e 8abc 2f16 d1bd 7518 5dbc
000002e0: 8f6c 36be 8882 9bbd 34e6 e5bd 7939 86be
000002f0: 3c65 f43d d4e9 4fbd 6188 103e a807 e33d
00000300: 0810 103d 04e0 123e b7c3 26be 506e 7dbd
00000310: c911 70be 46eb 4a3e 08d4 46bd bcf6 5abe
00000320: b999 c6bf 810d a6bf 1a5b 03be d131 9cbe
00000330: 9891 31be 5856 15bf 3b49 0fc0 e031 86be
00000340: aac6 18bf 5c8a a73e a08f 9cbd ed2c b3bd
00000350: 2049 2b3f 5091 5e3e 6593 883f ce0c acbd
00000360: bffd 22bd bdec 44be f8f9 233f b1cc 4fbe
00000370: 92b9 2cc0 8c94 953d 78d2 263e 8bb5 993e
00000380: 2417 343e c416 c43d 5aba 50bf afa2 833e
00000390: 76cc 523c 2885 393d a6e0 323f 7857 78be
000003a0: 7ef7 cd3d fdcd d93e eecc d33d faee 32be
000003b0: 9c7d 813d 14f3 22be 65e9 8dbf a60a c4bd
000003c0: 9d7f 44bf 57e8 7c3b 2ede bc3b f12f 56be
000003d0: ea27 30be 6b66 893d 4137 c73e bd46 303e
000003e0: b28a 0ebe b6ae b9bd be64 efbe 2cfd a03c
000003f0: a059 193e 7445 223e 95d9 4a3d 3bd2 db3d
0.108864054 -0.032908335 0.09852495 0.18860294 -0.18001318 0.012507107 -0.9190422 0.09574056
-0.08557357 0.2052857 0.96145743 0.08329982 -0.040058754 0.21485686 0.10777229 -0.14435774
0.21768135 -0.11944218 -0.13558364 0.2648653 0.29089895 -0.007966733 -0.037258822 0.12832887
0.09506208 0.2061508 0.9236557 0.09677689 -0.405761 -0.018940529 -2.6832154 0.30783662
0.13571844 0.21509773 -0.23028028 0.012434571 0.08377973 -0.15591198 0.21526891 -0.19738865
0.019200923 0.060427483 -0.043326594 0.038807992 0.20327401 0.004260642 0.12135323 -0.26174998
-0.1042612 -0.15289204 0.14588663 0.19028224 -0.06248363 0.038583595 0.08839345 -0.14431803
0.014462136 0.16119269 -0.20388465 -0.21007675 -0.31448776 0.03215765 0.030956062 -0.17781147
0.142566 -0.2662835 -0.110576235 -0.16919732 0.06932009 -0.3390467 0.1669146 -0.32124516
-0.04581925 -0.15318905 -0.08520471 0.099318154 -0.017051008 0.047580063 0.062999934 0.05874589
-0.034495603 -0.16607292 -0.1559697 -0.27094758 -0.18264818 -0.24217755 -0.06240633 0.004841495
-0.30183235 -0.0249277 -0.089409046 0.042792767 -0.2795062 0.0025858283 0.12945041 -0.30937022
-0.17147544 -0.011349484 0.11608698 0.10589791 0.61782336 0.02402206 -0.0804688 -0.17909974
-0.0057946146 0.13082846 0.74047583 0.18202765 0.03493949 -0.038876504 -1.4354593 -0.0114868535
-0.14115201 0.005110058 -0.13395637 0.06772 0.014100125 -0.16257675 -0.012223566 -0.07008431
0.3730416 -0.04451615 0.059214294 -0.068333715 0.1057848 -0.09632581 -1.1520989 0.15784116
-0.053922504 -0.021902874 1.0753132 0.36400867 -0.16798182 -0.1324423 -0.030014694 -0.18574268
0.17133333 0.1551468 0.44720647 0.21696481 0.069155805 0.054783735 -0.09002883 0.110727794
-0.12302731 -0.19560091 -0.16828758 -0.27685475 0.11460266 -0.021576472 -0.109693386 -0.062136814
-0.23921257 -0.23765379 -0.26772112 0.15515871 -0.15467617 -0.10309565 -0.118688025 0.13825929
-0.74015856 -0.20735975 -0.009950143 -0.28232035 -0.18361723 0.066516176 2.9530566 -0.19904505
0.11690959 0.007961851 0.084726475 -0.30093524 -0.044716705 0.04763931 0.0459859 0.13825388
-0.13460924 -0.051296905 -0.093806565 -0.19646798 -0.1072012 -0.016852379 -0.10209309 -0.013494601
-0.1781485 -0.07593256 -0.112255484 -0.26215723 0.119333714 -0.050760105 0.14114524 0.11085445
0.03517154 0.14343268 -0.16285597 -0.06187278 -0.23444284 0.19816312 -0.048542053 -0.21383184
-1.5515662 -1.2972871 -0.12827721 -0.30506757 -0.17340696 -0.58334875 -2.2388446 -0.26209927
-0.5967814 0.32722747 -0.07644582 -0.08748803 0.66908455 0.2173512 1.0669981 -0.0840088
-0.039792772 -0.19230933 0.640533 -0.20292927 -2.6988263 0.07303724 0.16291225 0.3002132
0.17586952 0.09574655 -0.8153435 0.25710055 0.01286613 0.045293003 0.69874036 -0.24252117
0.10056971 0.4253997 0.103418216 -0.17473975 0.06322786 -0.1591304 -1.1086851 -0.095723435
-0.7675722 0.0038590634 0.0057637906 -0.20916726 -0.17202726 0.06708988 0.38909343 0.17214485
-0.13920096 -0.090665266 -0.46756548 0.019651972 0.14975595 0.15846807 0.04952391 0.10733458

bias f4 [20]
00000000: 53ed b13f 8bcb f8bf bb61 b0bd 7a07 32be
00000010: 83dd 7dbc 9e76 8fbf 6d2e e03f cd9c 59be
00000020: a949 27bd d6e9 26be 6418 8a3c a4e1 da3f
00000030: cd22 a1bf d14e 38be 8971 c4bf f8dc a8bf
00000040: 6dee 11c0 dc93 13be d257 113e f9ef b33f
1.3900551 -1.9437116 -0.086123906 -0.17385665 -0.015494707 -1.1208074 1.7514168 -0.21251221
-0.040841732 -0.16300139 0.016857333 1.710011 -1.2588745 -0.17998816 -1.5347148 -1.3192434
-2.2801774 -0.14411873 0.14193657 1.4057609

weight f4 [2, 20]
00000000: e9af 073e e11a 93bd b1c3 14be cbad 163e
00000010: 3038 6cbe 4008 4b3c 4505 133d 2dab f23d
00000020: 391c 8b3e 78a1 d0bd c63f 9f3f 4dd2 0e3e
00000030: ad73 80be e930 803c 6d6a 2bbe 0646 20be
00000040: bb01 62be d182 7fbd f164 5f3d cae2 e13e
00000050: 4f17 fdbd c811 e33e 338f c4bd fee5 5e3d
00000060: f0f1 aabd 53a0 533e 98f7 4ebe 159d a83d
00000070: 76f0 153e 0791 25be 21e8 a5bf 559e 45be
00000080: 4037 dc3d f4a6 163d b637 863e a524 9a3e
00000090: 7b90 b43e c4ca c03d 53c9 6b3d dc9e b8be
0.13250698 -0.07182861 -0.14527775 0.14714734 -0.23068309 0.012392104 0.035893697 0.118490554
0.2716997 -0.10187048 1.2441337 0.13947411 -0.25088254 0.015648322 -0.16739817 -0.15651712
-0.22070973 -0.062380616 0.054539625 0.4411834 -0.123579614 0.44349504 -0.095976256 0.054418556
-0.08346927 0.20666628 -0.20211637 0.08233086 0.1464251 -0.16168605 -1.2961465 -0.1929868
0.107527256 0.036780313 0.2621438 0.30106083 0.3526648 0.094136745 0.057565045 -0.360587

bias f4 [2]
00000000: 7278 a23f aba4 cebf
1.2693007 -1.6144003
