Models/diabetes.pt (torch_old, 9789 bytes, 6 tensors)

weight f4 [32, 8]
00000000: 1348 943f 89d5 0dbf 6afc 253e a2ff 3d3d
00000010: 40b1 59bf fab2 b23e c17d 943f 942e 2d3c
00000020: 3129 03bf 59ba 8a3e 3628 c2be f836 88bd
00000030: 91ed 7f3e fb1c 82be 600a febe fbb4 903e
00000040: 76be 10be 1402 44bd f1e4 e23d e873 a3be
00000050: 9243 183e 2e7a 8bbe 585a 473f ee9d 8bbe
00000060: dcae b4bf 68aa 8cbe 89c8 2a3e 22ac a83e
00000070: c478 eabd 0499 f53d 4092 4fbf 7d64 1dbf
00000080: a341 873e ecd1 d7bd 8449 f9bd 96cb fcbd
00000090: cc5b 3cbe 0011 7cbc 5841 43be 2429 d23d
000000a0: 19cf 69bc 71df 1c3e c8d1 58be 9bf7 8b3e
000000b0: 5538 0a3e f17c d6be 9854 613f 30e4 133d
000000c0: 89ad 8ebe 1aeb b3be 528b bfbe a072 2abd
000000d0: de35 803c ce53 043e 4c0e 713e c138 1c3e
000000e0: 0628 2abe 9335 423e 9312 20bc 5d7a 6b3e
000000f0: 5df3 d73d a62f d13c b010 dcbe 60d4 8a3d
00000100: a358 0ebe 4803 d33d 568c 5cbe fbf3 8d3d
00000110: aaf4 8b3c 37f1 85be a4b6 853f 6345 133f
00000120: 44cc c8be 65c6 323e 7094 8f3d f252 debe
00000130: 551d 883d a338 cebe dbe2 d5bf f514 3a3e
00000140: 85be 93bd d686 afbe 10d0 4c3d fc8c 4cbd
00000150: 9233 f2bd b06a 45bd 1322 c6be 9f64 c2be
00000160: 404d 1e3e 38c3 973e 98b9 d0be fd63 68bd
00000170: 0a48 cd3b ba54 8e3c c2d8 09bf e068 b9be
00000180: 88ac 483e d0c0 f03c 54fd 1fbf 9079 5c3e
00000190: c112 773e 85c6 7dbe a741 ab3f 56a5 d2be
000001a0: 2baf 17bf 9604 75be b3e8 7e3e 89f6 5b3e
000001b0: 7fae 3abe 37fb 8abe 04ee 48bf e78d 123e
000001c0: 7b6e 3fbf 843e 6ebe 3e14 30be 5222 5f3e
000001d0: 6f54 623e 9ac7 20bf 8117 b0be 4dc9 03bf
000001e0: 26a7 ff3d 0fa7 973e 9c32 1dbe d9f2 be3d
000001f0: 0131 c6bd dee6 80bd 14e8 bcbe 8654 813e
00000200: bdff ddbe 0a4b 343e 2fb5 bcbd b0e9 8c3d
00000210: 0f41 3fbe 5f9d 68be fdb1 4cbe fc7d a23d
00000220: 0013 da3d 337c 7cbe 50e3 043d 98ee 39bd
00000230: 988e 9c3d 4d18 0ebe f67e 603e 45cc 98be
00000240: 1e15 42be b2a6 48be b025 803e 4e64 02be
00000250: 0e5a dbbd 18fb 303e e7d0 4a40 287d 32be
00000260: 37d7 9d3f fedc 70be 5e60 d23d d57e 00bf
00000270: 6005 753d 667a 0f3e ce6b 23bc eff5 a0bc
00000280: e6aa f8bd ec10 5ebe 2295 a3be c0c0 95bd
00000290: 3083 a43d e8b4 b4be 28e7 8cbd 8003 aebe
000002a0: 6b8a 05bf 9c75 7e3e 43ef 59bd b5d3 3e3d
000002b0: 5681 80be 4778 bb3d ad8d b63e a3cf 34be
000002c0: dfec 8cbd 2322 dabd 85a8 4d3e 74e4 113e
000002d0: f488 673c ae42 1dbe 527d 73bf 529d 9b3e
000002e0: 23a5 0cbe 3683 403e 7454 a9be 2166 563d
000002f0: 1f16 f7be 7b64 2d3e 1819 273e cdb1 ac3e
00000300: 2576 25be a68b 5c3e 8dde 643d 4d3c e7be
00000310: d365 323e eca7 86be 31a0 90bf 1aa1 293e
00000320: 4397 afbe 5194 10bd b529 493e 97c2 513e
00000330: 3a62 8b3d b8f5 173e fbff 16bf 6286 04bd
00000340: 67dc 0ebf 1a77 77bd 75f1 51be 2f59 9d3e
00000350: fca4 e03d 49c9 14bd 05d0 2ebe d1c9 34be
00000360: f7d3 34bd 8985 a2be 4742 793d 72d4 05be
00000370: 7df7 3b3d f630 173e 83ce dabc a978 d43d
00000380: befe 163f c43d 8f3d 04df 8c3e 6916 adbe
00000390: 29a4 8c3c 267e 1cbe 93c9 f73f 8e54 4d3e
000003a0: 2909 5fbe 7909 013e 9641 9f3e 6a99 71be
000003b0: a1b7 633d e204 8b3e 94db 103f 06cb 8dbe
000003c0: eb99 3fbe 7915 1d3e 1e35 d63d cbba 08bf
000003d0: a2d1 053e ae3d 9bbe 6eb3 b43e e0a9 67be
000003e0: 7012 4f3f 40a6 0abf 12b9 a53e cb18 03bf
000003f0: ef7b ccbd f8c5 8e3e 83bb 3fc0 141e ba3e
1.1584495 -0.55403954 0.1620957 0.04638637 -0.8503609 0.34902173 1.1600877 0.010570187
-0.5123473 0.27095297 -0.37921304 -0.066511095 0.24992968 -0.25412735 -0.4961729 0.28263077
-0.14135155 -0.047853544 0.11078823 -0.31924367 0.14869526 -0.27241653 0.7787223 -0.27268928
-1.4115863 -0.2747376 0.1667806 0.32943827 -0.114488155 0.11992076 -0.81082535 -0.6148146
0.26417264 -0.10538086 -0.12172225 -0.123435184 -0.18394393 -0.0153849125 -0.19067895 0.10261753
-0.014270567 0.15319611 -0.21173775 0.27337345 0.13498051 -0.41892198 0.88019705 0.03610629
-0.27866772 -0.35140306 -0.3741098 -0.04161322 0.015650686 0.12922594 0.2354061 0.15256025
-0.1661683 0.1896575 -0.009770053 0.22995897 0.10544465 0.025535416 -0.42981482 0.067787886
-0.13901 0.1030336 -0.21537909 0.06931301 0.017084438 -0.26160595 1.0446362 0.5752775
-0.39218342 0.17458494 0.07010734 -0.43422657 0.0664622 -0.40277585 -1.6709856 0.18172057
-0.07214073 -0.3428256 0.05000311 -0.04993914 -0.118262425 -0.04819745 -0.38697872 -0.37967393
0.15459156 0.29641128 -0.40766597 -0.05673598 0.0062646912 0.017374385 -0.5384637 -0.36212826
0.19597065 0.029388815 -0.62495923 0.21530747 0.24128248 -0.2478276 1.337941 -0.41141766
-0.5925166 -0.2392753 0.24893455 0.21480764 -0.18230627 -0.27144787 -0.78488183 0.14311944
-0.74777955 -0.23266035 -0.17195222 0.21790436 0.22102521 -0.6280457 -0.34392932 -0.51479036
0.12483053 0.29619643 -0.15351337 0.09323663 -0.096773155 -0.062940344 -0.36895812 0.252598
-0.43359175 0.1760675 -0.092142455 0.0688051 -0.18677162 -0.22716282 -0.19989772 0.07934186
0.10648155 -0.24656753 0.032443345 -0.045393556 0.07644385 -0.13876458 0.21923432 -0.29843345
-0.18953368 -0.19594839 0.25028753 -0.12733576 -0.10710536 0.17283285 3.1690004 -0.17430556
1.2331303 -0.23521802 0.10272287 -0.5019353 0.05981958 0.14011535 -0.009974433 -0.01964852
-0.12141971 -0.21686143 -0.31949717 -0.07312155 0.080328345 -0.3529427 -0.06880027 -0.33987045
-0.52164334 0.24849552 -0.053206693 0.04658862 -0.25098675 0.091538005 0.35654965 -0.17657332
-0.06881117 -0.10651042 0.20083816 0.14247304 0.014131773 -0.15357468 -0.951131 0.30393463
-0.1373487 0.18800053 -0.33072245 0.05234349 -0.48259065 0.16932862 0.16318166 0.337294
-0.1615835 0.21537647 0.055876303 -0.45163193 0.17421655 -0.2629999 -1.1298887 0.16565362
-0.3429509 -0.035297696 0.19644816 0.20484386 0.068058446 0.14839828 -0.58984345 -0.03235472
-0.5580506 -0.06041632 -0.20502265 0.30732104 0.10968968 -0.036324773 -0.1707154 -0.17655112
-0.044147458 -0.31742504 0.060854223 -0.13069323 0.04589032 0.14764771 -0.0267098 0.103745766
0.58982456 0.06994203 0.27513897 -0.3380616 0.017168121 -0.15282497 1.935839 0.20051786
-0.21780838 0.1260127 0.31104726 -0.23593679 0.055595044 0.27152163 0.5658505 -0.27693957
-0.18711059 0.15340222 0.1045935 -0.53410023 0.1306825 -0.30320495 0.35293144 -0.22623396
0.8088751 -0.5415993 0.3236776 -0.51209706 -0.09984576 0.27885413 -2.9958198 0.36351073

bias f4 [32]
00000000: 8a1c f0be 2c15 cabe 5fda 773f 014a a23f
00000010: a44c ea3d 0e3a a4bf e432 cabe 4005 773e
00000020: 2a47 e8bf 93eb 973f 1154 4bbe 60d0 12bf
00000030: 5872 0bbf b8f6 e2bd 8f29 27bf 806f 3e3f
00000040: 383d d13e f287 313e bb40 803f 4d14 d3be
00000050: 9092 d0bd b232 4bbf 8207 333f e905 87bd
00000060: 467a 643f ecdc 923f 6a9a babe 55f7 c5be
00000070: 9483 dcbf 83f0 48bf 8e77 a03e 18b0 903f
-0.46896774 -0.39469278 0.9681758 1.2678834 0.11440399 -1.2830217 -0.3949195 0.24123096
-1.8146718 1.1868767 -0.19856288 -0.57349205 -0.5447135 -0.11082214 -0.6529779 0.74388885
0.4086702 0.17337015 1.0019754 -0.41226426 -0.101842046 -0.7937423 0.6993333 -0.06592924
0.89249074 1.147367 -0.36445934 -0.38665262 -1.7227654 -0.7849199 0.31341213 1.130374

weight f4 [32, 32]
00000000: 02d7 ff3e 1566 f83c 01e9 45be 1a80 9dbe
00000010: 28ea 31be 2f18 43bc bf2a 5bbd 94b5 813d
00000020: 377d 793d e7ea 22be 8078 df3c e018 803d
00000030: 4e07 5b3a 721c fabd 5c9b 483d 6f48 ebbd
00000040: 8622 ad3d 903f ea3c 7640 65be 2111 863e
00000050: 90ea 533c 5c1d 93bd 12d3 143c edc1 ef3d
00000060: 11a8 bcbc e1db b1bc 8ec9 663d 2d3b d2bd
00000070: 3937 213e c840 103e 89a3 193e 010c 47be
00000080: 6dec c33e dbb5 cc3c a944 c3bd 529f 943f
00000090: 1b31 c7bd c366 bfbd 6e3c 08be 5e02 66be
000000a0: 81fe a83d 03ac d1bc 0a59 cf3d 9c8f 99bd
000000b0: 70e3 44be 9790 c0bd 6ffc 29be 5e33 e33d
000000c0: afa8 06be b6eb a6bd 8aef 4b3c cf91 c13d
000000d0: c849 4e3d 9010 2abe 2691 fabb 47df 4bbe
000000e0: a6c4 4cbe 4f2e d13d 0b46 2cbe abf8 1bbe
000000f0: cc75 8d3d ba5f 973c 1d4b 11bd fe2f a1be
00000100: 202a dc3b 5429 373d 0261 a83d 27ea 1e3e
00000110: 6423 3bbd b41b 26bd 307c 533c 16d2 e8bd
00000120: 18ae 18bd a048 5abc 2a4c a5bd d8c2 163d
00000130: 0838 10be fce1 75bd 55c0 b5bd 4a9d 23be
00000140: 2a36 c13d b45e 24bd c5df 223e 9e7b b33d
00000150: 70c8 e33c dbba 243e c4d6 03be 809a bcba
00000160: 932f 0dbe ed6b 203e b019 153c aafb f8bd
00000170: 2b4e 0cbe f0ba 96bc 74ce 14be 97cf 09be
00000180: 0676 d23e a0a0 d5bd 6787 40be 3b8f 72be
00000190: 6082 d0bb b32e f63d ae1f 4c3b c40d e1bc
000001a0: f1e6 f83c d588 373d 2e02 ed3d 39ed d13c
000001b0: f3f2 d5ba b61f 88be e4cd 2f3e 7887 33bd
000001c0: 97ae a13d a805 0f3d 32b0 493d f961 303e
000001d0: bb5f 0e3e db08 1f3e dfd0 d33d 9e81 2d3e
000001e0: 6565 8c3c 2b84 2ebc c3cb ebbc d052 3d3d
000001f0: 9e7c 3a3e 1131 303e b47b 773d 880b e8be
00000200: 72c7 f93c d569 3dbe bfe3 f5bd ead7 c6bd
00000210: b677 973d 50ae 6b3c 400c 483b c7a3 67be
00000220: df7d 45be 12dd a0bd 6745 093e 02bd 8f3d
00000230: a006 68bc 5260 b03d a123 1a3e c2d6 18be
00000240: f6c6 953a f0e9 2a3c 136a a4bb 668f 4b3d
00000250: a4ce 1abd 4a8d d93c ba4a 02be f789 1a3d
00000260: 50e7 913c 664c a2bd 309e b4bc 85dd 9b3c
00000270: 8855 543d 4899 653d 7514 31bd ae56 183d
00000280: a295 c5be 56b1 133e 8b37 b8bd 1ba0 513e
00000290: f40d 22be 8a48 30be 24c6 50be 32bc aebd
000002a0: fef9 11bd 7146 8e3d b7c4 e63c 76ce 23bd
000002b0: 3906 d0bd 9486 2b3e 4bb0 d93d f234 97bd
000002c0: 6307 333e 999d 18be 4b6b 8fbd 2a5b 72bd
000002d0: 30ce 1b3d 7a77 edbd 7379 f13d 5443 003e
000002e0: 97d5 8a3d 4ceb 7a3d fa58 4a3d 805c 0dbe
000002f0: d083 4dbd 3868 703d 4d3a d7bc 08c4 9d3e
00000300: 5c78 36bf 7fb5 78bc 9ac8 15bd f53f 8b3d
00000310: 4b3c 8dbd 6acf 99bd 44c4 5b3d 7898 f43d
00000320: 3227 ed3d e7cd e63c 2f12 213e c65b 433d
00000330: a2d0 4cbe c848 0cbe 4418 ec3d b1fe 41bd
00000340: d8e1 1bbe c22d f23d 4ee2 c8bc bc08 21be
00000350: ad56 023e a2cf 603d 0ef5 79bc 6944 a23d
00000360: 660f d13d 8114 11be a59a 37be c2df 06bd
00000370: bdd8 21be fed0 323d cd76 03bb 142e 553f
00000380: dbbe 66bd d87f 48be cfda b23d 5abf fb3d
00000390: 1838 c83c b392 c2bc 5416 7c3d 30e6 d2bd
000003a0: b7a4 453c 5c43 7b3d bcff 37bd 8e51 d13d
000003b0: ccd0 b23d b4a9 8fbd 2d86 56bd 9182 7abe
000003c0: 2fa8 b1bc 80fb c1bd 120b ce3d a196 7c3d
000003d0: 129a 00be 2c08 2d3d 3813 12be 9077 13be
000003e0: c4fa 53bd 31fe d13d e30e 823d df4a 4bbe
000003f0: 4175 3b3d 7661 71bd 6831 64be c875 563d
0.49968725 0.030322114 -0.19327165 -0.30761796 -0.1737448 -0.011907621 -0.053507563 0.063334614
0.06091043 -0.1590992 0.027279139 0.062547445 0.00083552755 -0.12212457 0.048976287 -0.11488425
0.084538504 0.028594762 -0.22387871 0.26184943 0.012934342 -0.07183334 0.009083526 0.1170691
-0.023029359 -0.021711292 0.05634456 -0.10265193 0.15743722 0.14087212 0.1500379 -0.19438173
0.38266316 0.02498906 -0.0953458 1.1611121 -0.09726163 -0.09345772 -0.13304302 -0.2246184
0.08251668 -0.025594717 0.10124405 -0.074980944 -0.19227386 -0.09402578 -0.16600202 0.11093782
-0.13150285 -0.08150427 0.012447247 0.09451639 0.050363332 -0.1660788 -0.0076466976 -0.19909392
-0.1999689 0.10213911 -0.16823594 -0.15231578 0.069072336 0.018478263 -0.035472024 -0.31481928
0.006718889 0.044717148 0.08221628 0.1551901 -0.045688048 -0.040553764 0.012908027 -0.11368196
-0.037275404 -0.013322979 -0.08071168 0.03680691 -0.14083874 -0.06002997 -0.08874575 -0.1597797
0.09434159 -0.04012938 0.15905674 0.087638125 0.027805537 0.16086905 -0.12874895 -0.0014389306
-0.1378768 0.1566617 0.009100363 -0.12157376 -0.13701694 -0.018399686 -0.1453188 -0.13458095
0.4110567 -0.104310274 -0.18801652 -0.2368745 -0.006363198 0.12020626 0.0031146812 -0.027472384
0.030383559 0.044808228 0.11572681 0.025625812 -0.0016323015 -0.26586694 0.17168385 -0.043830365
0.078946285 0.034917504 0.0492403 0.17224874 0.13903706 0.15530722 0.103425734 0.16943976
0.017138192 -0.0106516285 -0.028783685 0.046221554 0.182116 0.17206217 0.060420707 -0.45321298
0.03049061 -0.18497403 -0.1200633 -0.09709151 0.0739588 0.014384821 0.003052488 -0.2262107
-0.19286297 -0.07854666 0.13405381 0.07018472 -0.014161736 0.08612122 0.15052654 -0.14925674
0.0011427093 0.010431752 -0.005017528 0.049697302 -0.037794724 0.02655663 -0.12723818 0.03772923
0.017810494 -0.07924728 -0.022048086 0.019026527 0.05183938 0.056054384 -0.0432324 0.03719204
-0.38590723 0.14423117 -0.08994969 0.20471232 -0.15825635 -0.17215171 -0.20388085 -0.08531989
-0.0356388 0.069470294 0.028169973 -0.03999182 -0.10157437 0.16750556 0.10629328 -0.073831454
0.17483287 -0.14903869 -0.070028864 -0.059168972 0.038038433 -0.11595054 0.11790743 0.12525684
0.0677902 0.061259553 0.04940126 -0.13804817 -0.050174534 0.05869314 -0.026272917 0.30813622
-0.71277404 -0.015179991 -0.03656826 0.06799308 -0.068962656 -0.07510264 0.05365397 0.119431436
0.115797415 0.028174354 0.15729593 0.047694944 -0.20001462 -0.13699639 0.11528066 -0.047362033
-0.15222871 0.11825134 -0.024521973 -0.15725988 0.12728377 0.054885514 -0.0152561795 0.079232045
0.10208015 -0.14167978 -0.17930086 -0.032928236 -0.15805335 0.04365634 -0.0020059824 0.83273435
-0.056334358 -0.19580019 0.08733141 0.12292357 0.02444081 -0.023751592 0.06154473 -0.10297811
0.012063197 0.061343536 -0.04492162 0.102206334 0.08731231 -0.0701479 -0.052374054 -0.2446387
-0.021686641 -0.09471798 0.10060705 0.06166709 -0.12558773 0.04224412 -0.14265144 -0.14401078
-0.05175282 0.10253561 0.06350496 -0.1985278 0.04576612 -0.058930837 -0.22284472 0.05235842

bias f4 [32]
00000000: 0c08 99bf 126b 78bd 7bb7 d9bd 7f6f a4bf
00000010: cbe9 27be 978d 3a3f 63e4 333f ae37 1ebe
00000020: 083c 0abe 76df f73f 51d6 a2bf 6cd1 e63f
00000030: c6e0 81bd 6f26 5ebf 0cfc a5be 5378 4d3f
00000040: 2598 9b3e 5fc2 6b3d b712 ed3d 5274 3f3f
00000050: 885e 793f 4507 bfbe d5fc de3e 536f 513f
00000060: 78b4 8e3f c395 cbbd 61c4 823f 6fd1 473f
00000070: b804 dcbd e451 67be 624b 7ebf fe78 c63c
-1.1955581 -0.060648985 -0.10630699 -1.2846526 -0.16397779 0.728723 0.70270365 -0.15450928
-0.13499463 1.936507 -1.2721654 1.803266 -0.063417 -0.86777395 -0.3241886 0.80261725
0.30389515 0.057558414 0.11575835 0.74786866 0.9740987 -0.37310234 0.4355227 0.8181049
1.1148825 -0.09940674 1.021618 0.78053945 -0.107430875 -0.22589833 -0.99333775 0.024227615

weight f4 [2, 32]
00000000: 1ac9 2dbe 4fd3 69bd 2de5 8ebd 8913 3ebe
00000010: 950a c93d 7edb 0b3b aa07 95bc 1ca3 173e
00000020: 5fe9 9cbd 1c03 253e bae5 e5be 10d8 f53d
00000030: 165e 793c b87a 42bd 0301 3bbe 320f 92bd
00000040: dff0 743e 96cc 14bc 0960 cc3c c8bf c4bd
00000050: 26a6 723d 29c0 5ebe 6daf 1bbc a86b 873e
00000060: bae2 083e 0a0a 903d 5418 75bd c58d 523e
00000070: 2568 1dbd 358a 033e 8a32 75bd 3946 0dbe
00000080: bcf6 383e 993d 3dbe a0a3 7b3c 4feb ce3d
00000090: 6df1 e73d 59bb 72bd 4c86 eebd 7dba 8e3d
000000a0: eb51 81bd 8a76 ebbd 4ac4 8a3e 9f66 87be
000000b0: 2b23 a33d c586 533e 3523 f93e 4961 cfbd
000000c0: 1e73 42be b54f 053d 3dad 8abd 0d39 fabd
000000d0: b9ee 32be 6df4 a13e a42d adbc f720 82be
000000e0: 32f8 843c 0b9d d53d 3b75 cebd 74fc d63d
000000f0: 4c58 ebbd f1d5 ba3d 88db fa3d 4042 f9bd
-0.16971245 -0.057086285 -0.069773056 -0.1856214 0.098164715 0.0021340544 -0.018192131 0.14808315
-0.076616995 0.16114467 -0.4490183 0.12004101 0.015220186 -0.047480315 -0.18262105 -0.071318045
0.2392001 -0.00908198 0.024948137 -0.09606892 0.059240483 -0.21752991 -0.009502274 0.26449323
0.1336774 0.07033165 -0.059837654 0.20561893 -0.038429398 0.1284569 -0.05986265 -0.13796319
0.18062872 -0.18480529 0.015358835 0.10103475 0.11325345 -0.0592607 -0.11646709 0.069691636
-0.06314453 -0.11497219 0.27102882 -0.2644548 0.07965692 0.20656879 0.48659673 -0.101259775
-0.18989226 0.032546718 -0.06771324 -0.12217913 -0.17473878 0.31631795 -0.021139927 -0.25415775
0.01623163 0.10430344 -0.10080954 0.1049737 -0.11491451 0.09122837 0.122489035 -0.12170839

bias f4 [2]
00000000: 2217 943f 9e1d 88bf
1.156956 -1.0634038
